app/src/main/assets/mnist.tflite (tflite, 114152 bytes, 6 tensors)

sequential_1/dense_1/BiasAdd/ReadVariableOp f4 [10]
0.07054016 0.1892445 -0.06706715 -0.068561256 -0.05027875 0.0013915368 0.02075576 0.019475091
-0.124800496 0.071238436
00000000: 5c77 903d 4fc9 413e 805a 89bd d869 8cbd
00000010: 17f1 4dbd 3a64 b63a fc07 aa3c 3a8a 9f3c
00000020: 6797 ffbd 75e5 913d

sequential_1/dense_1/MatMul i1 [10, 9216] scale=0.0071615926 zero_point=0
0.07161593 0.05013115 0.014323185 -0.035807963 -0.2005246 0.07877752 0.021484777 0.014323185
-0.05013115 -0.12174708 -0.17903982 -0.021484777 -0.15039344 -0.0071615926 0.042969555 -0.07877752
-0.12890866 -0.386726 -0.33659485 -0.035807963 -0.05013115 0.20768619 0.05013115 -0.18620141
-0.3151101 -0.18620141 -0.05729274 -0.11458548 -0.05729274 -0.02864637 -0.02864637 -0.014323185
0.05013115 -0.42969555 -0.1002623 -0.06445433 -0.10742389 0.042969555 -0.16471663 0.05013115
-0.021484777 -0.24349415 0.05013115 -0.11458548 -0.23633255 -0.0071615926 0.0071615926 -0.05013115
-0.193363 -0.021484777 0.1002623 -0.17187822 0.11458548 -0.07161593 0.1002623 -0.14323185
0.05729274 -0.11458548 -0.21484777 -0.0071615926 -0.08593911 -0.30078688 -0.07161593 0.05729274
0.07877752 -0.014323185 0.05729274 0.02864637 -0.27214053 0.07877752 -0.014323185 -0.02864637
-0.035807963 -0.035807963 -0.035807963 -0.093100704 0.05729274 -0.07161593 0.08593911 -0.08593911
-0.18620141 -0.16471663 -0.25781733 -0.014323185 0.07161593 0.17187822 0.15755504 -0.093100704
-0.1002623 -0.26497892 -0.16471663 -0.014323185 -0.0071615926 0.0 0.02864637 0.021484777
0.10742389 -0.42253396 -0.05729274 0.021484777 -0.05013115 0.07161593 -0.12174708 0.10742389
-0.05729274 0.07161593 0.08593911 -0.05729274 -0.02864637 -0.06445433 0.0 -0.21484777
-0.093100704 0.02864637 0.05729274 -0.042969555 0.042969555 -0.1002623 0.02864637 0.10742389
0.1002623 -0.16471663 -0.24349415 0.0 0.05013115 -0.14323185 -0.035807963 0.0
0.08593911 -0.093100704 0.0 0.0 -0.13607027 0.035807963 0.07161593 -0.15755504
0.0 -0.23633255 -0.05013115 -0.08593911 0.021484777 -0.07877752 0.042969555 -0.18620141
-0.15039344 -0.2864637 -0.14323185 -0.07161593 0.014323185 0.12890866 0.021484777 0.042969555
-0.021484777 -0.3151101 -0.13607027 0.07877752 -0.1002623 0.035807963 0.11458548 0.0071615926
0.07877752 -0.30078688 -0.021484777 -0.1002623 -0.02864637 0.021484777 -0.1002623 0.05013115
0.06445433 0.02864637 0.014323185 -0.12174708 -0.15039344 -0.08593911 -0.0071615926 0.05013115
-0.021484777 0.02864637 0.07877752 0.07161593 -0.05013115 -0.093100704 0.02864637 0.0
0.093100704 -0.21484777 -0.30794847 0.021484777 0.06445433 0.05013115 -0.16471663 0.035807963
-0.0071615926 -0.15039344 -0.093100704 -0.035807963 -0.24349415 0.10742389 0.042969555 -0.1002623
0.02864637 -0.14323185 0.0 0.042969555 0.10742389 -0.07877752 0.035807963 -0.08593911
-0.15039344 -0.2936253 -0.21484777 -0.05013115 0.10742389 0.25781733 0.05013115 0.05729274
0.02864637 -0.07161593 -0.014323185 0.1002623 -0.15755504 0.014323185 0.17903982 0.021484777
0.07877752 -0.33659485 0.1002623 -0.08593911 -0.14323185 0.06445433 -0.02864637 0.035807963
0.06445433 0.0071615926 -0.093100704 -0.2005246 -0.042969555 -0.13607027 -0.021484777 0.042969555
0.014323185 0.021484777 0.15039344 0.021484777 -0.06445433 -0.07161593 -0.042969555 0.042969555
0.11458548 -0.10742389 -0.3151101 -0.0071615926 0.0071615926 -0.0071615926 -0.1002623 -0.042969555
00000000: 0a07 02fb e40b 0302 f9ef e7fd ebff 06f5
00000010: eeca d1fb f91d 07e6 d4e6 f8f0 f8fc fcfe
00000020: 07c4 f2f7 f106 e907 fdde 07f0 dfff 01f9
00000030: e5fd 0ee8 10f6 0eec 08f0 e2ff f4d6 f608
00000040: 0bfe 0804 da0b fefc fbfb fbf3 08f6 0cf4
00000050: e6e9 dcfe 0a18 16f3 f2db e9fe ff00 0403
00000060: 0fc5 f803 f90a ef0f f80a 0cf8 fcf7 00e2
00000070: f304 08fa 06f2 040f 0ee9 de00 07ec fb00
00000080: 0cf3 0000 ed05 0aea 00df f9f4 03f5 06e6
00000090: ebd8 ecf6 0212 0306 fdd4 ed0b f205 1001
000000a0: 0bd6 fdf2 fc03 f207 0904 02ef ebf4 ff07
000000b0: fd04 0b0a f9f3 0400 0de2 d503 0907 e905
000000c0: ffeb f3fb de0f 06f2 04ec 0006 0ff5 05f4
000000d0: ebd7 e2f9 0f24 0708 04f6 fe0e ea02 1903
000000e0: 0bd1 0ef4 ec09 fc05 0901 f3e4 faed fd06
000000f0: 0203 1503 f7f6 fa06 10f1 d4ff 01ff f2fa

sequential_1/conv2d_2/Conv2D f4 [32, 3, 3, 1]
-0.04725326 -0.03956685 -0.09707172 -0.04775252 -0.04690059 0.27821273 -0.10487713 -0.050645687
0.29795113 0.21007934 0.14481771 0.19053906 0.028547851 -0.2036521 0.07190831 0.032104164
-0.0187035 -0.097477324 0.06165193 0.12827048 0.24145634 0.23104197 0.090241045 0.12425622
-0.18042111 -0.26340407 -0.3315 0.33457026 0.1079652 0.03861188 -0.14813408 -0.003593254
0.028376494 -0.10679096 -0.1319172 -0.013690141 0.021195779 -0.2422068 -0.08204564 0.11350398
-0.24794377 -0.088991515 0.07023449 0.11370254 0.3411495 -0.018529393 0.06823903 -0.11102273
0.27464235 0.13272657 -0.300953 0.32760683 0.08254731 -0.4510174 -0.59492326 -0.36819157
-0.13380083 -0.3383929 0.15923047 0.16149674 -0.18543388 0.1881126 0.30013144 0.23753683
-0.22241426 -0.698229 0.23958237 0.14468355 -0.241793 0.26912162 0.32404423 0.0016222172
0.60475695 0.3618966 0.16017629 0.12661017 0.028415311 -0.4349437 -0.13397425 -0.43855768
-0.65353477 -0.37024328 -0.39189875 0.0012343366 0.087205596 0.0046800305 -0.010794138 0.12958363
0.2946469 0.21703503 0.21140863 -0.06713032 0.08945815 0.04502848 -0.16946504 -0.15501614
0.30850494 0.022209577 -0.13184896 0.07813111 0.1978767 0.36169106 -0.209176 0.007919535
0.27034134 -0.4790042 -0.27470443 0.1835732 -0.043359723 0.25791767 0.2365903 -0.22929165
0.029483449 -0.017692355 -0.64396656 -0.34543574 -0.55820304 0.29543307 0.06098047 -0.01947538
0.15998876 -0.03487809 0.08116173 0.17957588 -0.22025256 -0.036078762 0.2566681 -0.11486575
-0.44519722 0.1375893 0.012030066 -0.37221992 0.0065418673 -0.24152038 -0.9782222 0.060452424
-0.17707151 -0.32063267 0.17095195 0.0332438 0.08896824 -0.057955187 0.047411572 0.25892416
-0.1403485 0.14058809 0.12921451 -0.36113167 0.13795412 0.13984063 -0.29175624 0.21667628
0.104586035 0.27180704 -0.033037115 -0.39457026 0.25609523 -0.012062905 -0.1461792 0.056408606
-0.06983017 -0.41767138 -0.03144897 0.1774162 0.43890935 0.20218356 0.1817963 -0.2045718
0.19365677 -0.25598165 -0.5091011 0.24497788 0.09474053 0.28695154 0.020290378 0.18684272
-0.060573716 -0.326944 -0.23798111 -0.43305027 0.33323047 -0.021620685 -0.15310644 0.1534158
0.095477596 -0.37402463 0.26016936 -0.019850928 -0.24879122 0.2612592 0.11567733 0.19553655
-0.09087989 -0.036461864 0.17870718 -0.3676761 -0.14887467 -0.14382009 0.20483679 0.24496125
0.18963662 -0.15418303 0.11397108 0.1897556 -0.5629665 -0.29925257 -0.21622625 0.30244574
0.2435213 0.27380323 -0.011383705 -0.22095345 -0.14879109 -0.30183938 -0.16883804 0.15926965
-0.47876492 -0.1607593 0.20351362 -0.1895897 0.16260093 0.052921146 -0.42042136 -0.035226345
0.25156152 -0.39043576 -0.18342566 0.24948457 -0.14167285 -0.12721671 0.21625929 0.059806537
0.035068825 0.32913074 0.3432271 0.05601022 -0.06839165 0.16369776 0.02884391 -0.3456037
-0.2649368 -0.5048543 -0.9573637 0.14009514 -0.040485058 0.14901167 0.069448546 -0.009350019
-0.112101555 0.3302107 0.10314638 0.11846944 0.07184915 -0.24823779 -0.45590004 0.25820526
00000000: a28c 41bd d910 22bd 8acd c6bd 2598 43bd
00000010: d51a 40bd e671 8e3e d2c9 d6bd da71 4fbd
00000020: 0d8d 983e 0a1f 573e 184b 143e ac1c 433e
00000030: 2fdd e93c 2d8a 50be aa44 933d a87f 033d
00000040: 1538 99bc 31a2 c7bd bc86 7c3d 5659 033e
00000050: 5540 773e 4496 6c3e 4cd0 b83d 0c7a fe3d
00000060: 50c0 38be e6dc 86be 5eba a9be cb4c ab3e
00000070: dc1c dd3d 7e27 1e3d 76b0 17be cc7c 6bbb
00000080: d275 e83c 38b5 dabd 4d15 07be 9d4c 60bc
00000090: c5a2 ad3c 0f05 78be 8b07 a8bd c674 e83d
000000a0: f9e4 7dbe 2f41 b6bd 1ad7 8f3d e1dc e83d
000000b0: 26ab ae3e f4ca 97bc e8c0 8b3d e35f e3bd
000000c0: ec9d 8c3e 79e9 073e 8316 9abe 15bc a73e
000000d0: 900e a93d c1eb e6be e44c 18bf 9b83 bcbe
000000e0: 1603 09be d641 adbe 500d 233e 675f 253e
000000f0: 61e2 3dbe 97a0 403e d4aa 993e db3c 733e
00000100: 90c0 63be 23bf 32bf 1555 753e ed27 143e
00000110: 9698 77be 4fca 893e 20e9 a53e 94a0 d43a
00000120: 5ad1 1a3f 834a b93e 4105 243e 19a6 013e
00000130: 3ac7 e83c f1b0 debe 8c30 09be a28a e0be
00000140: 0e4e 27bf 8790 bdbe f4a6 c8be 77c9 a13a
00000150: d998 b23d f15a 993b e5d9 30bc 92b1 043e
00000160: f5db 963e 6e3e 5e3e 817b 583e 9f7b 89bd
00000170: d635 b73d c96f 383d 3e88 2dbe 8dbc 1ebe
00000180: 5cf4 9d3e dcf0 b53c 6a03 07be 3403 a03d
00000190: 31a0 4a3e 922f b93e 3c32 56be f0c0 013c
000001a0: 2e6a 8a3e 0a40 f5be 0fa6 8cbe 9dfa 3b3e
000001b0: f799 31bd c90d 843e ba44 723e 6ecb 6abe
000001c0: 4687 f13c 8fef 90bc feda 24bf f4dc b0be
000001d0: 65e6 0ebf 0143 973e a8c6 793d d58a 9fbc
000001e0: 18d4 233e 54dc 0ebd 1f38 a63d bde2 373e
000001f0: e389 61be 53c7 13bd 006a 833e bc3e ebbd
00000200: e4f0 e3be 36e4 0c3e c119 453c 9c93 bebe
00000210: 295d d63b 1e51 77be c56c 7abf f69c 773d
00000220: 3c52 35be f729 a4be 070e 2f3e a72a 083d
00000230: fb34 b63d 6b62 6dbd a332 423d b591 843e
00000240: 84b7 0fbe 53f6 0f3e cf50 043e 40e6 b8be
00000250: d843 0d3e 6232 0f3e 1361 95be 63e0 5d3e
00000260: 3431 d63d 4b2a 8b3e ed51 07bd 1d05 cabe
00000270: ea1e 833e 7ea3 45bc 00b0 15be b60c 673d
00000280: 1f03 8fbd 06d9 d5be a3d0 00bd 98ac 353e
00000290: bab8 e03e 3509 4f3e cf28 3a3e 457b 51be
000002a0: f64d 463e 0710 83be 7354 02bf 7bdb 7a3e
000002b0: 5307 c23d 50eb 923e 0238 a63c b353 3f3e
000002c0: 251c 78bd 3465 a7be 52b1 73be c4b8 ddbe
000002d0: 2f9d aa3e dd1d b1bc efc7 1cbe 0819 1d3e
000002e0: c289 c33d 2880 bfbe eb34 853e 6a9e a2bc
000002f0: 20c3 7ebe c4c3 853e 3ce8 ec3d bc3a 483e
00000300: 3c1f babd 0959 15bd 04ff 363e 0b40 bcbe
00000310: 9a72 18be 9345 13be bcc0 513e 1fd7 7a3e
00000320: 1a30 423e 28e2 1dbe ab69 e93d 4b4f 423e
00000330: 931e 10bf a237 99be 6a6a 5dbe 2bda 9a3e
00000340: a65d 793e f02f 8c3e b882 3abc 9f41 62be
00000350: b15c 18be b18a 9abe e1e3 2cbe 9517 233e
00000360: ad20 f5be 169e 24be e065 503e cd23 42be
00000370: dc80 263e d8c3 583d 7841 d7be 8049 10bd
00000380: accc 803e 32e7 c7be f0d3 3bbe e278 7f3e
00000390: b012 11be 1945 02be 1373 5d3e b3f7 743d
000003a0: 54a4 0f3d d383 a83e 76bb af3e f96a 653d
000003b0: ec10 8cbd 63a0 273e 104a ec3c f8f2 b0be
000003c0: cca5 87be 223e 01bf ca15 75bf 1a75 0f3e
000003d0: a9d3 25bd 8496 183e 0a3b 8e3d d230 19bc
000003e0: 8095 e5bd 6011 a93e 693e d33d 1ba0 f23d
000003f0: a625 933d 0c32 7ebe bb6b e9be 7b33 843e

sequential_1/conv2d_3/Conv2D i1 [64, 3, 3, 32] scale=0.010297258 zero_point=0
0.010297258 -0.17505339 0.010297258 -0.18535066 0.072080806 0.030891776 -0.010297258 -0.09267533
-0.08237807 0.17505339 -0.13386436 0.030891776 0.030891776 -0.23683694 -0.030891776 -0.05148629
0.030891776 0.010297258 -0.10297258 -0.030891776 -0.22653969 0.020594517 -0.08237807 -0.15445888
0.020594517 0.11326984 0.0 -0.26772872 -0.072080806 0.010297258 0.15445888 -0.072080806
0.041189034 -0.030891776 0.072080806 0.010297258 0.061783552 -0.020594517 0.010297258 0.020594517
-0.030891776 0.020594517 0.08237807 -0.010297258 -0.010297258 -0.19564791 -0.030891776 -0.010297258
0.030891776 -0.09267533 -0.030891776 -0.061783552 0.061783552 -0.030891776 -0.08237807 -0.09267533
0.010297258 0.010297258 0.041189034 -0.17505339 -0.072080806 0.010297258 0.072080806 0.041189034
0.010297258 -0.22653969 -0.08237807 -0.08237807 -0.11326984 0.020594517 0.020594517 0.061783552
0.020594517 -0.10297258 0.061783552 -0.072080806 0.030891776 -0.28832322 -0.010297258 -0.030891776
-0.10297258 0.020594517 -0.2986205 -0.10297258 -0.020594517 -0.030891776 -0.05148629 -0.15445888
-0.13386436 -0.13386436 0.020594517 -0.16475613 -0.061783552 -0.010297258 0.09267533 -0.08237807
0.08237807 -0.10297258 0.10297258 0.020594517 0.08237807 0.0 0.010297258 -0.05148629
-0.061783552 0.10297258 -0.14416161 0.13386436 0.09267533 -0.123567104 -0.020594517 -0.010297258
0.13386436 -0.11326984 -0.041189034 0.05148629 -0.11326984 0.010297258 0.041189034 0.030891776
-0.020594517 0.13386436 0.0 -0.21624243 0.041189034 0.0 0.061783552 -0.05148629
-0.041189034 -0.020594517 0.05148629 0.061783552 -0.041189034 0.061783552 -0.010297258 0.123567104
0.041189034 0.072080806 0.13386436 -0.05148629 -0.041189034 -0.16475613 -0.041189034 -0.010297258
-0.030891776 0.061783552 -0.041189034 0.17505339 0.10297258 0.041189034 -0.030891776 -0.010297258
-0.041189034 -0.030891776 0.020594517 -0.19564791 0.030891776 -0.05148629 0.072080806 -0.041189034
0.041189034 0.041189034 0.030891776 -0.11326984 -0.123567104 0.010297258 -0.08237807 0.041189034
-0.010297258 -0.061783552 -0.020594517 -0.15445888 -0.020594517 -0.14416161 0.08237807 -0.041189034
0.010297258 0.030891776 0.0 0.08237807 0.13386436 -0.072080806 0.0 -0.16475613
-0.123567104 0.0 -0.061783552 -0.23683694 -0.05148629 0.030891776 0.010297258 -0.061783552
0.072080806 -0.08237807 0.123567104 -0.05148629 -0.09267533 -0.14416161 -0.041189034 -0.17505339
-0.05148629 -0.16475613 -0.24713421 0.030891776 0.0 -0.27802598 0.010297258 0.05148629
-0.010297258 -0.030891776 -0.17505339 0.18535066 -0.19564791 -0.030891776 -0.041189034 -0.010297258
-0.061783552 0.041189034 0.061783552 -0.36040404 -0.010297258 -0.010297258 -0.13386436 0.041189034
-0.041189034 -0.041189034 0.041189034 -0.05148629 -0.010297258 -0.010297258 -0.11326984 -0.08237807
0.020594517 -0.13386436 0.0 -0.14416161 0.11326984 -0.15445888 0.0 -0.05148629
-0.14416161 -0.09267533 0.020594517 0.041189034 0.05148629 -0.010297258 0.041189034 -0.123567104
0.061783552 0.020594517 0.030891776 -0.26772872 0.041189034 -0.11326984 -0.010297258 -0.030891776
00000000: 01ef 01ee 0703 fff7 f811 f303 03e9 fdfb
00000010: 0301 f6fd ea02 f8f1 020b 00e6 f901 0ff9
00000020: 04fd 0701 06fe 0102 fd02 08ff ffed fdff
00000030: 03f7 fdfa 06fd f8f7 0101 04ef f901 0704
00000040: 01ea f8f8 f502 0206 02f6 06f9 03e4 fffd
00000050: f602 e3f6 fefd fbf1 f3f3 02f0 faff 09f8
00000060: 08f6 0a02 0800 01fb fa0a f20d 09f4 feff
00000070: 0df5 fc05 f501 0403 fe0d 00eb 0400 06fb
00000080: fcfe 0506 fc06 ff0c 0407 0dfb fcf0 fcff
00000090: fd06 fc11 0a04 fdff fcfd 02ed 03fb 07fc
000000a0: 0404 03f5 f401 f804 fffa fef1 fef2 08fc
000000b0: 0103 0008 0df9 00f0 f400 fae9 fb03 01fa
000000c0: 07f8 0cfb f7f2 fcef fbf0 e803 00e5 0105
000000d0: fffd ef12 edfd fcff fa04 06dd ffff f304
000000e0: fcfc 04fb ffff f5f8 02f3 00f2 0bf1 00fb
000000f0: f2f7 0204 05ff 04f4 0602 03e6 04f5 fffd

std.constant f4 [32]
-0.0014842385 -0.0045346776 -0.00036527563 -0.014832421 -0.010771894 -0.0058883177 0.03491214 -0.0100059705
0.0028589217 -0.006690836 -0.011324418 -0.016776213 0.06494953 -0.004995533 0.10089783 -0.022418903
-0.007846651 0.017716257 -0.02024797 -0.0010206372 -0.0073258583 -0.0039191693 0.0044753673 -0.009406181
0.01157178 -0.0061283363 0.055493724 -0.038897518 -0.021179648 -0.005085289 0.031099115 0.02079202
00000000: c88a c2ba a297 94bb 7782 bfb9 af03 73bc
00000010: 997c 30bc caf2 c0bb 0800 0f3d 15f0 23bc
00000020: bf5c 3b3b cd3e dbbb 0d8a 39bc 456e 89bc
00000030: 4204 853d 91b1 a3bb 86a3 ce3d d9a7 b7bc
00000040: 3d8f 00bc af21 913c 12df a5bc e7c6 85ba
00000050: c10d f0bb 606c 80bb 1aa6 923b 621c 1abc
00000060: 9097 3d3c 36d0 c8bb 634d 633d 0153 1fbd
00000070: f180 adbc 7fa2 a6bb 92c3 fe3c 0754 aa3c

std.constant1 f4 [64]
0.052988958 -0.0078047905 0.037670776 0.019181196 -0.055404685 -0.0020032988 0.03107484 -0.039453425
-0.043866467 0.037423883 -0.02192752 0.034732837 0.025321659 0.026292404 -0.013018105 -0.0034596566
0.025551427 -0.041293353 -0.018799154 -0.028318811 -0.023703052 -0.04876798 -0.02110207 -0.04655392
-0.07531877 -0.05157852 0.024675686 0.024143172 -0.021294955 -0.01016574 -0.07358341 -0.018086223
6.9878035e-05 0.005657961 -0.034340594 0.018869173 0.039502278 0.07883566 -0.081328705 0.08758705
-0.0354591 -0.0077207494 -0.045046266 0.037655108 -0.008367578 0.029942915 -0.03577366 -0.01351575
-0.029188653 -0.015889829 -0.017991195 -0.0013926501 -0.008430659 -0.008358174 0.059260834 0.0018166543
0.07903657 -0.040171117 -0.0226985 -0.010631032 -0.05085164 -0.053699777 -0.059507024 0.10276584
00000000: f30a 593d 54bf ffbb ac4c 1a3d e221 9d3c
00000010: 06f0 62bd c749 03bb aa90 fe3c ea99 21bd
00000020: 53ad 33bd c949 193d 58a1 b3bc 0544 0e3d
00000030: 5e6f cf3c 2b63 d73c e449 55bc 68bb 62bb
00000040: 3a51 d13c 3823 29bd af00 9abc dafc e7bc
00000050: e72c c2bc efc0 47bd 40de acbc 53af 3ebd
00000060: ba40 9abd 0044 53bd aa24 ca3c e7c7 c53c
00000070: c272 aebc 348e 26bc e6b2 96bd 8f29 94bc
00000080: 7c8b 9238 6b66 b93b b9a8 0cbd 8693 9a3c
00000090: 24cd 213d 9774 a13d aa8f a6bd d760 b33d
000000a0: 903d 11bd 57fe fcbb 6f82 38bd 3e3c 1a3d
000000b0: 2a18 09bc d84a f53c 6787 12bd 2a71 5dbc
000000c0: 0b1d efbc 632b 82bc 4562 93bc 9589 b6ba
000000d0: bf20 0abc b9f0 08bc 7dbb 723d ce1c ee3a
000000e0: eddd a13d 788a 24bd 34f2 b9bc c82d 2ebc
000000f0: cf49 50bd 4cf4 5bbd a3bd 73bd e676 d23d
